Task1/colorization_model.pth (torch, 439812 bytes, 8 tensors)

encoder.0.weight f4 [64, 1, 3, 3]
00000000: c07e 1c3e cb93 49be 40cb 1a3d eed7 73be
00000010: 09be a03e f3b7 70be ce0b 753e 52ec 543e
00000020: 4088 6a3d d084 f2bd a46a e43d 94c7 d53d
00000030: 28f6 5c3d 073f 9bbe c0e1 78be 40c1 91be
00000040: 126e 343e e08c 70bc 6e45 97be b627 e9bd
00000050: 445a c03d 3d3c 923e 28e4 26bd 0cfb 983d
00000060: 4a5c 3e3e 9055 82bc dac4 2a3e e60b 6d3e
00000070: d0c3 a13d 1039 e03c 28ca 34be ceca 90be
00000080: b666 61be efc0 83be 8c33 fb3d 89f3 853e
00000090: ea80 143e ecbe f9bd 54e7 fc3d c60c 6d3e
000000a0: c097 f63d 5b1f 5abe 1c98 cc3d 8ca7 fb3d
000000b0: a0e9 46bc 281f 053d 6b2c 7cbe 4cbd babd
000000c0: fce3 c6bd c318 86be 86f7 013e ff2f 89be
000000d0: 856e 8e3e 67bd 89be a034 8ebd bad3 6b3e
000000e0: d8b6 51bd 257d 8e3e 867e 653e 4855 76bd
000000f0: 94d2 eb3d 349e a43d 6088 23bd 50aa d3bc
00000100: 80ef 4fbd d6fd 7e3e 225e 8fbe 89b9 973e
00000110: 929e 93be 9081 e23d 9ee1 64be d02b 8c3d
00000120: e28b 84be b8f6 343d 226b 083e a66b 13be
00000130: f895 71be 7c34 90bd c78f 81be 101c 023e
00000140: c72f 823e 5810 4bbd 2bdc 8d3e b858 22bd
00000150: a067 6c3c 6805 0e3d 721d 433e 1612 94be
00000160: 40b8 18bd e8a4 27bd 2c6a f03d d64f ddbd
00000170: 0c98 dcbd f725 a4be d60e 563e 8252 9cbe
00000180: 6eb8 303e f0c2 c13d e3cb 89be c0c0 9abe
00000190: 5054 79be d951 953e 7834 163e 9bbc 8e3e
000001a0: 2046 a3bd d29e 1c3e a673 78be 46e6 a1be
000001b0: 71ac a33e 12e4 233e 652f a33e 541b 903d
000001c0: 8ccf f1bd 006a fdbd 40e8 55be e19e 823e
000001d0: 2ec4 0bbe 4866 5ebd ee7e 10be 9b4c 6dbe
000001e0: 80d9 3c3c 3837 133d 328a a3be 37ab 883e
000001f0: 0061 0a3d 9144 983e 4cfe 873d e00f a9bd
00000200: 86c9 81be e92b 9f3e ab24 3abe 769e 8dbe
00000210: 38b2 503d cc9d aa3d 90a7 d4bd a3fa 6bbe
00000220: 0c73 98be 467a 15be f662 613e 14c3 a8bd
00000230: c852 82be 43ed 45be 738f 79be 6ee5 033e
00000240: 02e9 533e 9e7b 3abe aef5 3c3e d687 26be
00000250: 4469 973d 2092 df3d 7a1c 3b3e 1026 87bc
00000260: 7827 7cbe ca55 653e a055 d23d a0e2 d93d
00000270: 4052 ecbc 0812 0c3e 609f 2d3c 3b18 18be
00000280: 8341 7bbe fa11 8cbe 80be a3bd e6ac 34be
00000290: 0b8b 14be eb9f 78be dbe6 42be ae8f 17be
000002a0: 9e8c 25be fcf5 9fbd e8de 37be 304d f0bc
000002b0: 3254 653e 4656 713e fe75 9ebe fa7f 233e
000002c0: 3303 933e 3647 563e 147a 90be 7c7d 93bd
000002d0: ce0a 07be 4c6c fabd a016 6f3d 922c a4be
000002e0: a089 983d 2052 343d 2468 8a3d c9fe 883e
000002f0: c881 6ebd 7dae 8d3e 7260 603e 3486 b73d
00000300: 9a4d 013e 3a27 233e a03d bbbd 8a2c 333e
00000310: 0887 20bd 1a41 0a3e d42c a2be 103e bc3d
00000320: 0ba9 1abe 4a7d 753e 8026 46bb 7182 963e
00000330: 51fd 9b3e 9b3e 0fbe b009 fabc dea8 083e
00000340: 0c53 b0bd 70c2 a83d 5259 343e 0867 203d
00000350: ae24 29be 6893 a7be cb27 90be 10f6 a03c
00000360: 6a08 013e 5054 b6bd 1a87 613e 9168 833e
00000370: 007c 02bb 2071 0abd 8859 98be 3fee a13e
00000380: 297f 873e 948c 8c3d 966d 233e 302f d9bc
00000390: 5362 9b3e 2b34 83be 4f88 8c3e 8043 253e
000003a0: 8e78 6c3e be6a 98be 4210 633e ace3 c1bd
000003b0: 4159 903e 24b6 d03d 047a d73d c011 75be
000003c0: c376 17be fb14 8bbe 6a08 3d3e 0ca1 c73d
000003d0: 0ca6 f53d ac3a b6bd 8090 5dbd ee6e 783e
000003e0: 7e5c aabe e6d1 c4bd 6f56 98be f642 173e
000003f0: f858 583d 923c 1d3e 5e7e 51be 5672 abbd
0.15282726 -0.19685285 0.03779149 -0.2381284 0.31394985 -0.23507671 0.23930284 0.20793274
0.057258844 -0.11841738 0.111531526 0.10438457 0.05394569 -0.30321524 -0.24304867 -0.2846775
0.17620113 -0.014682025 -0.29545158 -0.113845274 0.09392217 0.28561583 -0.04074493 0.074697584
0.18589893 -0.01590994 0.16676655 0.2314907 0.078986764 0.02737096 -0.17655241 -0.28279728
-0.22011837 -0.25733134 0.12265691 0.26162365 0.14502302 -0.121946186 0.1234881 0.23149404
0.12040663 -0.21301024 0.0998995 0.122878164 -0.0121406615 0.032500416 -0.24626319 -0.09118137
-0.09711453 -0.26190767 0.12692079 -0.2679443 0.27818695 -0.26902315 -0.06943631 0.23029986
-0.051199764 0.27829853 0.22411546 -0.060139924 0.11514774 0.08037987 -0.03992498 -0.025838047
-0.050765514 0.24901518 -0.28001505 0.2963374 -0.28831917 0.11059868 -0.22351691 0.06844294
-0.25887972 0.0441806 0.13322118 -0.14396533 -0.23592365 -0.070412606 -0.25305006 0.12706017
0.25427076 -0.049576133 0.27707037 -0.03963539 0.014429003 0.034673125 0.19054201 -0.28920048
-0.03728509 -0.04092875 0.11739001 -0.10806243 -0.10771188 -0.32060215 0.20904097 -0.30531698
0.17257854 0.094610095 -0.26913366 -0.30225182 -0.24348569 0.29164007 0.14668453 0.2787827
-0.0797236 0.1529496 -0.24262866 -0.31620997 0.319675 0.1600497 0.31872097 0.070364624
-0.118071645 -0.123737335 -0.20889378 0.2551184 -0.13649055 -0.05429676 -0.1411092 -0.23173754
0.011526465 0.035941333 -0.31941372 0.26693127 0.033783913 0.29739812 0.066403 -0.08254981
-0.25349063 0.31088188 -0.1817805 -0.2765996 0.050951213 0.083308786 -0.103835225 -0.23044829
-0.29775274 -0.14597425 0.22010407 -0.08240333 -0.25453782 -0.1932879 -0.24371128 0.12880489
0.20694354 -0.18211219 0.18453094 -0.16262755 0.07393125 0.10916543 0.18272582 -0.016497642
-0.24624431 0.22396007 0.10270238 0.106389284 -0.028847814 0.13678753 0.01059708 -0.14852993
-0.2453671 -0.27357465 -0.07995319 -0.1764408 -0.14506166 -0.24279754 -0.19033377 -0.14800903
-0.16166922 -0.0781059 -0.17956126 -0.02933368 0.22395399 0.23568067 -0.30949396 0.15966788
0.28713378 0.20925602 -0.28218138 -0.072016686 -0.13187715 -0.12227687 0.058371186 -0.32065254
0.07448125 0.044023633 0.067581445 0.26756886 -0.058229238 0.27672186 0.21911791 0.08961144
0.12627259 0.15932932 -0.091426134 0.17497459 -0.039191276 0.13501397 -0.31674826 0.09191525
-0.15103547 0.23973575 -0.003023535 0.29396394 0.30466703 -0.13988726 -0.030522197 0.13345668
-0.0860959 0.08240211 0.17612198 0.03916076 -0.16517898 -0.3272965 -0.2815536 0.019648582
0.12600866 -0.089028 0.22024193 0.25665715 -0.0019910336 -0.03379929 -0.29755807 0.3162708
0.26464203 0.06862751 0.15959772 -0.026511759 0.30348453 -0.25625739 0.27447745 0.1613903
0.23092863 -0.29768938 0.2217417 -0.09467253 0.28193095 0.101909906 0.105213195 -0.23932552
-0.14791398 -0.27164444 0.18460241 0.09747514 0.119945616 -0.088979095 -0.054092884 0.24261066
-0.3327369 -0.096103474 -0.29753444 0.14771637 0.052819222 0.15355137 -0.20458362 -0.08371417

encoder.0.bias f4 [64]
00000000: c811 43be 3209 743e 7dc1 a83e d882 2c3d
00000010: 8be3 9a3e 10e7 85bc 24e9 843d 9729 85be
00000020: 1f66 a73e 8097 2dbe 6026 123e 6408 8a3d
00000030: 50de 263e 4055 fe3d 88d5 76bd c6ed f4bd
00000040: 9971 a63e c226 753e d0d2 e4bd 539a 4cbe
00000050: eecf 6e3e 894e 9b3e 0396 69be cccd dabd
00000060: c02f a73d 0024 6bbb c01f 323d cd33 843e
00000070: ea14 0d3e e49e f43d b8b6 6b3d 0bce 9abe
00000080: 14dd 9ebd 62ab 3f3e 86a9 eebd 708c b6bd
00000090: f32d 23be 4b8c 883e 2687 a3be 6f76 a33e
000000a0: 7d3d 893e 83cd 8cbe d2f4 4a3e d475 933d
000000b0: 5852 3fbd 86de 2ebe 0660 68be a05e 0cbd
000000c0: cb04 5cbe e83b 39bd 00d0 b7bd 477d a33e
000000d0: e207 84be c0ed cebb 5441 833d 9cf1 a5be
000000e0: 20c3 1bbc f0dc 27be 009b d93b 2545 953e
000000f0: 775c a6be 4097 81bc a1ea a83e a63a f9bd
-0.19049752 0.23831633 0.3296012 0.04211697 0.30251727 -0.01634553 0.064897805 -0.26008293
0.326951 -0.16952324 0.14272451 0.06739882 0.16295743 0.12418604 -0.060262233 -0.11959414
0.32508543 0.23940566 -0.11173022 -0.19980745 0.23321506 0.30333355 -0.22811131 -0.10683784
0.081634045 -0.0035879612 0.04348731 0.2582077 0.1377751 0.119443685 0.0575473 -0.30235323
-0.07757011 0.18717721 -0.11653428 -0.08913505 -0.15935497 0.26669535 -0.31939048 0.31926295
0.26804724 -0.27500543 0.19819954 0.07200208 -0.04670939 -0.17077073 -0.2269288 -0.03426993
-0.21486203 -0.045223147 -0.0897522 0.31931517 -0.25787264 -0.006314963 0.06408945 -0.32410896
-0.009506971 -0.16392875 0.006640792 0.29154316 -0.3249242 -0.015819192 0.32991508 -0.121693894

middle.0.weight f4 [128, 64, 3, 3]
00000000: 383e d5bc c839 28bd 6849 98bc 585e 9abb
00000010: 9012 44bc 40ab 223c 08f2 debc a6a6 e1bc
00000020: 28c7 8bbc 8852 e5bc 00bb 04bd 1415 483c
00000030: f038 73bb ec8a 583c 4b06 1ebd 565a 36bc
00000040: c03b e8bb 142a 6d3c 44f6 25bc 3cb6 263c
00000050: 66e9 c6bc 002e e0b9 69a9 153d 164d db3c
00000060: 20cc c2bc c096 7f3c 10c3 39bb 462f a1bc
00000070: e741 003d 1039 78bc 509a 6fbc be69 14bd
00000080: ce5c d4bc 125b 823c 3283 993c c20e bb3c
00000090: b4fd 10bd b296 ed3c 8ef0 cdbc 1af1 ce3c
000000a0: 26ce 1abd 9e02 c73c 8093 843a f0f7 08bb
000000b0: 3ca2 1a3c 9e56 0abd 40e0 42bb 00d0 a1b9
000000c0: 6e49 b33c ec5e 083c 250b 003d 9cb8 3cbc
000000d0: f80d 19bd 2be2 173d bcfb 01bd 7166 1e3d
000000e0: c41c 303c ae0c a0bc 20a1 dfba 908b 05bb
000000f0: 931c a3bc 20f2 f1bb d22f 19bd d68e fd3c
00000100: 54c1 163c 6673 76bc 30a8 60bc aa23 bc3c
00000110: a086 c03b 00a5 4339 b2fd c93c 006c 4bbb
00000120: f404 08bd 2e6e e43c aff8 253d 0e41 ff3c
00000130: 0006 abba 5de6 113d de86 d53c 8620 33bc
00000140: b192 043d a82f b7bc 7aae bf3c 7271 ba3c
00000150: 5088 f8bc d0ec 8dbc 95f3 0e3d e047 ccbc
00000160: 0e61 c4bc 5669 23bd c976 143d 6049 52bc
00000170: 6c55 363c 5cfe 67bc 03b0 a6bc 3613 54bc
00000180: 40ce d03b 0646 903c c08a 133a f045 08bd
00000190: 08ce eebb cc3a 1dbd 116d 133d b2de b93c
000001a0: c39c 053d 2c68 45bc 10b2 92bc ab35 0ebd
000001b0: 002c f8bc d64d 5fbc d616 f83c b837 85bb
000001c0: e632 7dbc 4052 b0bb 2261 903c 4ac6 ca3c
000001d0: f13c 1c3d 6ae1 f23c 9891 fdbc 40a4 67ba
000001e0: f004 debc 1da8 163d 606c b7bb 8f2b 023d
000001f0: cc5a 26bc 8e4f a63c 3c6f 543c a875 ff3b
00000200: 30ad 9a3c 00c0 10b6 186b 9c3c 905a 59bc
00000210: b81b 9f3c c4a3 0cbd 6389 81bc d016 bfbc
00000220: 8420 543c aea9 e13c 8003 7cbb 2c51 583c
00000230: caef ec3c 80bc ab3b bbb1 083d d9b2 243d
00000240: 8689 84bc 3856 c0bc a06c ddbc b0d0 4ebc
00000250: a0ba 363c ec36 483c a64e 9d3c c8c0 e1bb
00000260: 025d b03c 4ce7 04bd 02d7 c23c f859 07bd
00000270: 2782 1d3d e6b3 a8bc 8bcb 16bd 8059 a139
00000280: 2ea5 d33c 881b 9abb ba7f c03c 30ee 553b
00000290: 8844 0bbd ecb9 21bc 53f7 243d 50f2 1f3c
000002a0: b93c 173d 4007 d8bb f038 853c ff2f 00bd
000002b0: 774c 1f3d f669 d9bc 5867 b23b eb82 d9bc
000002c0: a8ae b4bb bafa e43c 005f 633a ab42 f3bc
000002d0: ce40 ae3c cec1 ba3c 509d 1d3b e031 d7bb
000002e0: 665f adbc 8c37 04bd ee3b 0fbd 8022 88b9
000002f0: db06 9ebc 0882 d8bc 6216 b13c f38a 18bd
00000300: 4bc7 c9bc 8c3f 4f3c ac0b 0a3c 5244 29bd
00000310: 9317 c7bc d77b 1d3d 8eb5 e0bc e270 25bd
00000320: 1398 28bd 7710 153d a06b e2bc 3618 7cbc
00000330: 8eb4 cabc 409c 70bb 80df debb 759a 203d
00000340: 40ef 353b 8806 debc 583c f2bc 3a35 1fbd
00000350: 5665 e7bc f0d9 5a3c 80b4 0abb 006c 4c39
00000360: bcc9 7abc 9686 7abc 300c 50bc d734 2a3d
00000370: 3e56 9abc 6412 1a3c c01d 4fbb 2206 b63c
00000380: 9e1b 95bc 80ae 9fb9 0042 dfb8 d684 d33c
00000390: 7095 23bb ae71 f0bc 9ab5 af3c 90da fcbc
000003a0: a589 093d 32df c93c e23b 8c3c 106f 37bc
000003b0: 8017 e7b9 2e74 f2bc b13c 0f3d 506a bebc
000003c0: 4add 21bd cdb2 103d 287e bb3b def6 d9bc
000003d0: 5264 b93c f320 0abd 451c 0d3d b6ec 48bc
000003e0: 5c02 0a3c c04f fcbc fdfc 263d 4dfb 053d
000003f0: 7272 d63c 538e 273d 03be 25bd 2782 14bd
-0.026030645 -0.04107073 -0.01858969 -0.0047109537 -0.011967316 0.0099285245 -0.027215019 -0.027545284
-0.017062739 -0.027993456 -0.0324049 0.012212057 -0.0037112795 0.013216715 -0.03858022 -0.011129936
-0.007087201 0.014475364 -0.010129515 0.010175284 -0.024281215 -0.00042758882 0.036538515 0.026770156
-0.023778975 0.015599906 -0.0028345026 -0.019675862 0.03131285 -0.0151503235 -0.014624193 -0.036233656
-0.025923159 0.015912566 0.018739317 0.022834186 -0.0353982 0.029002521 -0.02513912 0.02526145
-0.037794255 0.02429324 0.0010114759 -0.0020899735 0.009438094 -0.03377401 -0.0029735714 -0.00030863285
0.0218856 0.008323412 0.03126063 -0.011518624 -0.037366837 0.037080925 -0.031734213 0.038671914
0.010749046 -0.019537296 -0.0017061569 -0.0020377375 -0.019911086 -0.0073836 -0.03739912 0.030951899
0.009201366 -0.015042162 -0.013711974 0.022966225 0.0058754236 0.00018658116 0.024657104 -0.0031039715
-0.03320785 0.027884569 0.040520366 0.03115895 -0.0013048053 0.035620082 0.026065286 -0.010933047
0.03236646 -0.022361591 0.023398627 0.022759173 -0.030338436 -0.017324835 0.034900267 -0.024936616
-0.02397206 -0.039895378 0.036246095 -0.012834877 0.011128765 -0.014159765 -0.0203476 -0.012944033
0.006372243 0.017611515 0.00056282803 -0.033269823 -0.0072877444 -0.03838615 0.035992686 0.022689197
0.032620203 -0.012048762 -0.017907172 -0.03471915 -0.030294418 -0.013629397 0.030284327 -0.00406548
-0.01545403 -0.0053808987 0.017624442 0.024752755 0.038144056 0.029648501 -0.030953214 -0.0008836426
-0.027101964 0.03678142 -0.005597636 0.031779822 -0.010153484 0.020301607 0.0129659735 0.007796008
0.01888141 -2.156943e-06 0.019094035 -0.013266221 0.019422397 -0.034335867 -0.015812581 -0.023326308
0.012947205 0.02754673 -0.0038454235 0.013202947 0.028922934 0.005240977 0.033372622 0.040209625
-0.016178858 -0.023478612 -0.027029335 -0.012622997 0.011152893 0.012220126 0.019202542 -0.0068894364
0.021528725 -0.032447144 0.023784164 -0.033044785 0.0384542 -0.020593595 -0.036815207 0.00030774996
0.0258356 -0.004702989 0.023498405 0.0032643192 -0.034000903 -0.009870987 0.04027493 0.009762362
0.036923144 -0.006592661 0.016262501 -0.031295773 0.038891282 -0.026539784 0.0054444484 -0.026551684
-0.0055139847 0.027951587 0.0008673519 -0.029694876 0.021271136 0.022797491 0.0024050064 -0.006567225
-0.021163654 -0.032279536 -0.034969263 -0.00025965646 -0.019290378 -0.026429191 0.021617118 -0.037241887
-0.024631163 0.012649428 0.008425634 -0.04132492 -0.024303233 0.03844818 -0.027430322 -0.040390857
-0.041160654 0.036392655 -0.02763921 -0.015386632 -0.024744298 -0.0036714226 -0.0068015456 0.0392098
0.0027761012 -0.027102724 -0.02956979 -0.03886912 -0.028246563 0.013357624 -0.0021164715 0.00019495189
-0.015306886 -0.015290877 -0.012698218 0.0415543 -0.018839952 0.009403799 -0.0031603426 0.022219721
-0.018201645 -0.00030456856 -0.00010645762 0.025820177 -0.0024960898 -0.029351082 0.021448899 -0.030865937
0.033578534 0.02464256 0.017118398 -0.011195913 -0.00044077262 -0.029596414 0.03496999 -0.023244053
-0.03951768 0.035326768 0.005721826 -0.026606973 0.022630844 -0.03372283 0.034450788 -0.012263468
0.008423414 -0.030799747 0.040768612 0.032710362 0.026177619 0.040907215 -0.040464412 -0.036256935

middle.0.bias f4 [128]
00000000: 9047 263c 9bc6 a4bc 54a3 4a3c 8c27 6b3c
00000010: acde 143c ca58 8e3c bcfc 673c 12d4 aa3c
00000020: e4c3 0bbc d809 a2bb 808a f7ba 75ce 1f3d
00000030: 9beb 233d d842 c5bc 0e65 debc 128c 0fbd
00000040: baa5 a93c 1b0c d0bc b850 15bd 7832 21bd
00000050: 0e0b f4bc cecd a1bc c053 263a a9ec 013d
00000060: 4882 f53b 8aed db3c 46ba 3bbc 883a babc
00000070: f426 27bc a061 54bc 0ac4 c73c 609d ce3b
00000080: ac9d 17bd d088 4e3c c868 e8bb 20af 953c
00000090: 2e68 9a3c 5105 013d a0a4 9d3a 9073 033c
000000a0: 66fa b7bc e0c1 00bd 0098 a73a 60bb a43b
000000b0: 0b61 c5bc 9337 03bd ff8a 1bbd 538a f7bc
000000c0: ba5d 05bd 931b 283d a633 e33c 88a7 a7bc
000000d0: 98bf afbc 567a f8bc 4516 083d f6b8 50bc
000000e0: e426 0a3c 9413 2e3c 5260 f23c 74f4 06bc
000000f0: 985f b43b 6ec2 9dbc 2cae 42bc c0c3 7a3a
00000100: f8a2 a93b 622e 1cbd 404d 35bc f01e 583c
00000110: f8b6 c0bc d2ea d53c 619b 143d 2932 1d3d
00000120: e476 25bc 2982 163d a001 03bc 7852 eabc
00000130: e0c3 95ba 00ac eab9 40c9 933b dc9e 7abc
00000140: 7a15 d13c 4489 143c a019 beba d4bb 463c
00000150: d076 22bd 06e5 a53c 7e0a 8c3c 6bbc 82bc
00000160: 390a 063d a2e1 cb3c 9129 1a3d feef 913c
00000170: 36b2 863c 0ca4 36bc 8034 a5b9 881e c7bc
00000180: 1afb 21bd 801e b23a b880 87bc c0da 3bbb
00000190: 07f4 193d 9bb8 29bd 1b3d c3bc 1b3a f0bc
000001a0: f52c 0e3d 0e49 c4bc 7ba1 1dbd a470 6c3c
000001b0: 0e23 923c 2581 193d f310 d9bc 131b c5bc
000001c0: e0a6 e93a b0d4 353c 3297 cd3c 3af2 ef3c
000001d0: 68de 1dbd 38f0 f4bc 8cb6 78bc 7a71 06bd
000001e0: d7bd 1d3d 960f 983c 28e1 f1bc 02e5 1abd
000001f0: 67a0 273d 6617 b0bc 21a4 253d 224d f33c
0.010148898 -0.020114234 0.012368042 0.01435269 0.009086292 0.017376322 0.014159378 0.020853076
-0.008530591 -0.004945021 -0.0018885881 0.039015252 0.040019613 -0.024079725 -0.027147796 -0.03504569
0.020708907 -0.025396397 -0.036453933 -0.03935477 -0.029790428 -0.019751456 0.0006344877 0.031719837
0.0074923374 0.026846666 -0.011457985 -0.022732988 -0.010202158 -0.012962729 0.02438547 0.0063053817
-0.037015602 0.012605861 -0.007092569 0.018271983 0.018848505 0.03149921 0.0012027211 0.008023158
-0.022458266 -0.031434894 0.0012786388 0.0050272197 -0.024094125 -0.03203542 -0.037974354 -0.030217325
-0.032560088 0.04104192 0.027734589 -0.020465627 -0.021453664 -0.030331772 0.033224363 -0.012739411
0.008432124 0.010624785 0.029586945 -0.008236993 0.0055045597 -0.01925775 -0.011882346 0.0009565912
0.005176898 -0.03813017 -0.011065781 0.01319097 -0.023524746 0.026112948 0.036280993 0.038377915
-0.0100991465 0.036745224 -0.007995993 -0.028603777 -0.0011426173 -0.00044760108 0.004510075 -0.015296664
0.025522936 0.00906593 -0.0014503486 0.012129743 -0.03966409 0.020250808 0.017094847 -0.015958985
0.032724593 0.024887864 0.037637297 0.017814633 0.0164424 -0.01114751 -0.00031510368 -0.02430655
-0.03954611 0.0013589412 -0.01654087 -0.002866432 0.03758624 -0.04143582 -0.023832848 -0.029324582
0.034710843 -0.023960616 -0.038484078 0.0144311525 0.017838981 0.037476677 -0.02649734 -0.024060762
0.0017826222 0.011098072 0.02509651 0.029290307 -0.03854218 -0.029899701 -0.015180241 -0.032823063
0.038511124 0.01856212 -0.029526308 -0.037816055 0.040924456 -0.021495532 0.04043973 0.029699866

decoder.0.weight f4 [128, 64, 2, 2]
00000000: 38cc 6cbc 0869 123c 1872 5dbd 80c3 a2bc
00000010: 6a32 5dbd 5217 573d 86b7 4e3d 343f 6b3d
00000020: 9254 123d f291 2ebd da6f 6bbd 44e5 2fbd
00000030: 76ec 74bd 9e60 6c3d e84e e0bc 3657 3abd
00000040: d014 9ebc cc8b 77bd ee36 69bd e0f9 b23b
00000050: c8cf e33c 007d a43c c216 143d fa60 003d
00000060: f2cf 3f3d 727e 4f3d 746d a13c 4e3a 00bd
00000070: d6f9 29bd 6c9e 453d da77 7dbd 0886 363d
00000080: c48c d9bc f8b6 66bd 0cb4 6b3d 40ee b9bb
00000090: 200d 8cbb f065 16bc d006 0c3c 1062 683c
000000a0: 2695 7dbd 4877 66bc f00d 85bc 0072 dcb9
000000b0: 62f7 713d 4860 7d3c e07c 2a3c a434 6b3d
000000c0: 60bd 2ebc 9040 1cbd 9cd7 babc b089 2d3d
000000d0: 36b6 42bd 8a03 23bd 3c71 0a3d 40b4 573b
000000e0: 2442 79bd 8a6c 29bd 721b 5f3d f063 54bc
000000f0: b0a1 033d 9c27 6a3d a897 593c 88d2 583d
00000100: 76a4 433d 2036 c0bc 28be 1e3d de63 67bd
00000110: 2475 7cbd 20ed 75bd 0cf8 513d b024 cbbc
00000120: 6433 633d 94f5 eabc 54bc cdbc a8a5 77bc
00000130: 0874 9cbc e04f 68bd 5a3a 7d3d 1c4d 33bd
00000140: 8cb2 85bc 10f5 2f3d ac79 94bc ca37 02bd
00000150: e084 80bc 343a 0d3d 844c 80bc 8aa5 3fbd
00000160: 7c31 5fbd 4832 1ebc 24af 58bd 6485 6f3d
00000170: d0ed 6cbc a0ba 1b3b 9645 73bd 3063 7e3c
00000180: aa71 0e3d b073 77bd f4ea 353d 3616 513d
00000190: 8025 8e3b 562a 53bd 929b 30bd d8ea c83c
000001a0: 5604 75bd f04f cc3b b0ac a4bb ee79 6bbd
000001b0: 3001 3dbc e44f a2bc ba4c 753d 9cda 5fbd
000001c0: ec8f 573d 1495 6fbd 00eb 13bc c06c b23c
000001d0: fc05 353d 88ed 7ebd f084 aebb 74a2 cd3c
000001e0: d831 9a3c 1aef 6a3d 088b 48bd dcc5 1bbd
000001f0: e096 62bd d880 5b3d 2873 f73c 087a 173d
00000200: 000f c9ba 8c84 b2bc f07d c3bb a471 6cbd
00000210: c0f0 943b 2888 3ebd d8cb 3e3c c07b 7fbd
00000220: e85d 7e3d 609e cbbc 3019 32bc e416 4fbd
00000230: 402c ac3a d659 0fbd bc8f 34bd 3038 e23c
00000240: c233 32bd 3845 e1bc d08f 74bc c860 1cbd
00000250: b8c7 7f3d a4d3 6c3d 4269 5fbd 5c35 fe3c
00000260: fa2a 66bd d494 8cbc 50cf 13bc d0e6 c2bc
00000270: 1645 543d 388f 863c 5078 6abc 70d0 1ebd
00000280: 00a5 b23b 7072 0dbc a461 7e3d 8649 42bd
00000290: 7c63 99bc bcf3 87bc ec53 093d 4088 a03a
000002a0: 0e64 0bbd 6810 72bd 8421 efbc 58d3 eb3c
000002b0: 34ac 753d 60b1 5ebb f006 f3bb c413 5ebd
000002c0: 6c63 b23c ca18 23bd 50a0 99bc 2c6f 07bd
000002d0: 240c 6c3d e02f 103c 1ae8 6ebd 52af 2cbd
000002e0: b022 39bc 8092 ccbc 9ce3 18bd c20f 473d
000002f0: e099 69bb 002c f0bc c832 5d3d 0025 05bc
00000300: 58f0 a93c c0b4 bebb 26e1 7b3d 000c 7c3d
00000310: ae39 1d3d 60b6 ecbc cc9b cf3c 3cc7 62bd
00000320: 1474 b3bc 6a31 1d3d 887d d83c e85b 1e3d
00000330: 68ab b03c 5481 2f3d 8cce 2bbd 1cef 06bd
00000340: a0c7 913b 42ff 0cbd 22d2 7b3d a89a 5abd
00000350: 809c e0bb 2091 eebb 2c48 9dbc eedc 60bd
00000360: 747c 473d 3078 cabb 28d2 383d 2052 a7bc
00000370: ba95 0dbd 8ea6 643d 4408 173d 6085 07bc
00000380: 7882 f93c a606 0c3d 60c9 b03c 5823 253d
00000390: ec6d 0b3d c425 673d cc52 8dbc 40ac 563d
000003a0: 4065 02bc 5cc1 8f3c 2641 3dbd a03a 02bd
000003b0: a800 54bd 4e49 6c3d d872 f8bc 285f 3ebc
000003c0: bcf5 513d a8ee 4abc e0e7 043c 741e c9bc
000003d0: 346c 663d ce6c 0d3d e2f7 303d 80ed d63a
000003e0: 6012 4bbc 647f 2dbd 6c77 f4bc cc87 b4bc
000003f0: d01e 7a3c 5065 9d3c 96fd 2f3d 907c 073d
-0.014452986 0.008936174 -0.054063886 -0.019868612 -0.054003157 0.052512474 0.05046799 0.057433322
0.035725184 -0.042619653 -0.057479717 -0.042943254 -0.05979582 0.05770933 -0.027381375 -0.045493327
-0.019297034 -0.060436055 -0.05693715 0.0054619163 0.027809039 0.020079136 0.036154516 0.031342484
0.04682917 0.050657697 0.019705512 -0.031305604 -0.041498028 0.048246786 -0.061881877 0.044561416
-0.02655638 -0.056326836 0.057544753 -0.0056741536 -0.0042740256 -0.009179577 0.008546546 0.014183536
-0.061909817 -0.014066525 -0.016241997 -0.00042046607 0.059073813 0.01546485 0.010405749 0.05742325
-0.010665268 -0.03814751 -0.022807889 0.042367637 -0.04753705 -0.039798297 0.033799395 0.0032913834
-0.060854092 -0.041363277 0.054469533 -0.01296328 0.03213662 0.05716668 0.013280787 0.052935153
0.047764264 -0.023463309 0.038755566 -0.056491725 -0.06163515 -0.060040593 0.051261947 -0.024797767
0.05546893 -0.028681554 -0.025114216 -0.015115179 -0.019098297 -0.0567168 0.061823227 -0.04377471
-0.01632049 0.04295832 -0.018124424 -0.031791486 -0.01568836 0.034479335 -0.015661485 -0.04678873
-0.05449055 -0.009655543 -0.052901402 0.05847682 -0.014460996 0.002376236 -0.059392534 0.015526578
0.034776367 -0.060413063 0.044413522 0.051046573 0.0043379664 -0.051554047 -0.043117113 0.024526045
-0.05981859 0.006235115 -0.0050254688 -0.057489328 -0.011535928 -0.019813485 0.059887625 -0.05465184
0.05262749 -0.05849178 -0.009028196 0.021780372 0.04419516 -0.062238246 -0.005325906 0.025101878
0.018822595 0.05735693 -0.048960716 -0.03803049 -0.055319667 0.05358967 0.030206278 0.036981612
-0.0015339553 -0.021791719 -0.0059659407 -0.057725564 0.004545301 -0.046516567 0.01164528 -0.062373877
0.062101275 -0.024855793 -0.010870263 -0.05055894 0.0013135746 -0.034997784 -0.04408239 0.027614683
-0.04350639 -0.027498826 -0.014926866 -0.038178235 0.062446326 0.057819024 -0.05454374 0.031031303
-0.05619333 -0.01716081 -0.009021595 -0.0237917 0.051823698 0.016425714 -0.014310911 -0.038773
0.0054517984 -0.008633241 0.062104836 -0.0474334 -0.018724196 -0.016595714 0.0335273 0.0012247637
-0.034030966 -0.059097677 -0.029190786 0.0287873 0.05997868 -0.0033980235 -0.0074165985 -0.05421807
0.021775924 -0.039818563 -0.0187532 -0.033065006 0.057628766 0.008800477 -0.058326818 -0.042159386
-0.011299774 -0.0249722 -0.03732644 0.048599012 -0.0035644695 -0.029317856 0.054003507 -0.008126497
0.020744488 -0.005819887 0.061494015 0.06153488 0.038385086 -0.028895557 0.025342844 -0.055365786
-0.021905936 0.038377203 0.026427045 0.038661867 0.021566108 0.042847946 -0.041945025 -0.032942876
0.004448846 -0.03442312 0.061479695 -0.053370148 -0.0068545938 -0.007280484 -0.019199453 -0.054898195
0.048702672 -0.0061788782 0.045122296 -0.020424902 -0.03456662 0.0558229 0.036873117 -0.008271545
0.03045772 0.034186028 0.021580398 0.04031691 0.034040377 0.0564325 -0.017251395 0.052410364
-0.00795871 0.017548256 -0.04620471 -0.03179419 -0.05175844 0.057687096 -0.0303282 -0.011619367
0.05125974 -0.012386002 0.008111924 -0.024550654 0.056255534 0.034527592 0.04320515 0.0016397685
-0.012394518 -0.042357817 -0.029842101 -0.02203741 0.015266135 0.019213349 0.042966448 0.033077776

decoder.0.bias f4 [64]
00000000: 68f5 1a3c 80a0 7fba 54de 6ebd c8ee 28bd
00000010: 0856 4c3c 2016 bbbc 2047 ca3b c218 3cbd
00000020: ec72 af3c 48b5 5bbd c82a 9e3c b034 33bd
00000030: a01c b83b 789c 4cbc 2a9a 543d a807 06bd
00000040: caa3 79bd 18dc 0dbd 54f9 fabc c0d3 b33b
00000050: 0093 11bd 2863 323d dcff 953c 5610 443d
00000060: 64f0 123d 8060 243b 64ad debc 6096 06bb
00000070: e0dd c1bc f0dd 64bd 689f 57bc e85b 0d3c
00000080: 8a5d 54bd 0048 153c 626b 63bd 06bb 3bbd
00000090: 584f 5cbd e430 5fbd 987c 0bbc 8880 633d
000000a0: 60cd 023b 44d2 dc3c b4ac babc 00d8 ca3b
000000b0: 727e 153d e08e e23b f8ed 94bc 06ec 12bd
000000c0: 4428 043d 0461 0abd 9679 483d 6023 e63c
000000d0: 1a4e 6bbd 00ae a9b9 eef8 293d f04d a8bc
000000e0: 84d5 693d 2034 793b bc8d 1ebd 0235 59bd
000000f0: 0089 b73b 5203 063d b4e5 46bd 4078 b53c
0.0094579235 -0.00097513944 -0.058317497 -0.041243345 0.012471683 -0.022837698 0.0061730295 -0.04592205
0.021417104 -0.05363968 0.019307509 -0.04375142 0.0056186467 -0.012488477 0.051904835 -0.032722145
-0.060947217 -0.034633726 -0.030636467 0.005487889 -0.03554058 0.043551594 0.01831048 0.04786714
0.035873786 0.0025081933 -0.027182288 -0.0020536408 -0.023665369 -0.05587572 -0.013160564 0.008627869
-0.05184702 0.009111404 -0.05552233 -0.045832656 -0.053786606 -0.054489985 -0.008513592 0.0555425
0.0019958839 0.026955731 -0.02278743 0.0061903 0.03649754 0.0069140047 -0.018179879 -0.03586962
0.032264963 -0.033783928 0.04894408 0.02809304 -0.05744753 -0.00032363832 0.041497163 -0.020544976
0.05708839 0.0038025454 -0.038709387 -0.053029068 0.0056010485 0.03271801 -0.048558906 0.022152066

decoder.2.weight f4 [3, 64, 3, 3]
00000000: 7192 153d 78d3 ae3b fcb2 3e3c d224 923c
00000010: e888 c23b f57c 213d e085 14bc 006f cb3b
00000020: 0038 d139 7239 ae3c c84b a1bc 62b6 28bd
00000030: 3e1a cdbc 3ea7 a5bc 667c 9fbc 90cd fcbc
00000040: 59f6 133d 2b3a 97bc d000 c1bc 806c 923c
00000050: cbdf 1b3d de36 8bbc 68ff e3bb e00b 313c
00000060: abdf 073d 3495 14bc c86d dcbc 3321 f8bc
00000070: 726e 06bd 4e28 d5bc 862a 27bd 6950 173d
00000080: 6632 fe3c 830a 243d 605f eebb 69c0 263d
00000090: b6c8 20bd f0ca 2bbb 6d67 033d 3d7a 203d
000000a0: b016 b2bc 632d 18bd 4eb8 c03c 6cbc 533c
000000b0: a8ec db3b f099 45bc 3768 28bd f02e 6fbc
000000c0: 1e42 fabc e6b7 d7bc 8bdb c7bc 38b5 ec3b
000000d0: d3e2 12bd e06d 84ba 93bf b0bc 32d8 d33c
000000e0: c0cf 0fbb 669c 9cbc 9836 de3b 400a 483a
000000f0: ce6b f43c f331 a9bc 00b9 d7bc c76b 0dbd
00000100: 1b4a c6bc ae25 b8bc 43ce 86bc 067e a23c
00000110: 58fc bc3b be4c bdbc 0008 21bb ddb9 0a3d
00000120: de4e 8dbc 4481 1ebd 464a 913c c651 7fbc
00000130: 72f4 b13c 246f 03bc ee71 b83c 3e91 9bbc
00000140: ff09 29bd 10c2 96bc 58da 19bd 2cd2 50bc
00000150: 806c 32bc e3c5 a6bc 660f d5bc 64d8 29bc
00000160: 8be2 c9bc f32a 82bc 3bd3 17bd 5e4c de3c
00000170: 404c 5c3a 2070 67bc a679 e43c c007 4eba
00000180: 63c2 203d 80c2 97ba 500a a53c 0997 133d
00000190: d449 743c fe34 d7bc db24 dabc 45d1 1b3d
000001a0: 56f4 ee3c 5e05 e1bc 98ef 83bc 62cc 0cbd
000001b0: 6f58 223d caaa e43c c1cc 1d3d c008 49bc
000001c0: 9bfd 093d 6079 babb 645f 123c b871 cebb
000001d0: 96c3 b7bc 6f30 1cbd 843a 29bd 2861 edbb
000001e0: e368 13bd 0018 29b9 6d0d 153d 2cda 673c
000001f0: 7006 69bb e865 8dbb 1076 48bb a209 eb3c
00000200: 93ec 143d f4b3 293c 7af4 c63c b0ff 2a3c
00000210: 6044 92ba 605e fabc d6b9 41bc d89a fb3b
00000220: 69dd 233d a036 103c db33 8abc e2fd d33c
00000230: e1ea 063d 405e 613a 803f 7a3b 7def 193d
00000240: a01f f4bc 5944 103d a853 fabc d092 7f3b
00000250: 3284 e73c a039 b63a 4acd 1fbd 23e7 f7bc
00000260: 3867 aa3c 007f 08bd e607 c93c c091 a0bb
00000270: 08a6 e2bb 786e 973b 02b7 df3c 1a82 bf3c
00000280: 20c9 113c 40e9 2ebc 193c 063d 40ec 53bc
00000290: a1c3 1e3d 2928 203d 03d4 80bc abd5 d5bc
000002a0: 46a2 91bc f3f1 0ebd 00ca 063c e010 e2bb
000002b0: 20cc 0c3c 276b 27bd 78c0 91bc bf4a 183d
000002c0: e427 14bd 6628 b7bc 286c a73c a6b6 c7bc
000002d0: 3a6d bc3c 4ac8 b23c 489c 8d3c 06a5 9e3c
000002e0: 2076 c6bb 1304 c4bc 2ad3 d93c 0b48 ebbc
000002f0: a2ce ea3c 904c 82bc 9c3e 4b3c 2e1a ebbc
00000300: 8c8d 0abc 0ef1 fd3c 442e 1cbc 03d4 dbbc
00000310: 26f7 b1bc 3596 233d f3f1 f5bc 72ed a53c
00000320: f8db c5bc 62f7 1cbd 3208 1cbd 02e0 993c
00000330: 78c9 bebb e41e 433c 1e2f 1cbd 109d 3abb
00000340: 6ad0 b33c e213 a73c 98e7 c63b 8baf 273d
00000350: c28a be3c 2baa c1bc 8804 803b a00f ce3a
00000360: 2126 273d d8a0 eebb 2047 93bb eb38 08bd
00000370: bc45 3f3c 0082 833a 538d 033d 7864 bcbb
00000380: 060d fdbc 295c 123d 8043 74bb 300b 3c3c
00000390: d483 16bc 392c 0d3d c3c3 07bd 7640 40bc
000003a0: 300c bdbc 547f 2a3c 410a 193d c0ca 263a
000003b0: cf2e 0abd 3bf9 103d 9190 0d3d 900f babc
000003c0: e6b6 d2bc 803d 2e3b 6041 c1bb 6b44 b5bc
000003d0: e0e8 c8bc fc3e 623c 8837 fabc 80f5 72bb
000003e0: f4fb 6a3c 434d 0d3d fb3f c9bc 305f 22bb
000003f0: c247 c83c 6ed8 843c bafe e93c 4295 f73c
0.03651661 0.0053352676 0.011639353 0.017839823 0.0059367307 0.03942581 -0.009065121 0.0062083006
0.0003990531 0.021267626 -0.019689456 -0.04118956 -0.025036927 -0.020221349 -0.019468497 -0.030859739
0.036123607 -0.018460354 -0.023559958 0.017874002 0.038055222 -0.016993936 -0.006957937 0.010806054
0.03317229 -0.009068776 -0.026907817 -0.030289268 -0.032820173 -0.026020195 -0.040812038 0.03694192
0.031029891 0.040049087 -0.007274553 0.04071084 -0.039253913 -0.002621349 0.032081056 0.039179076
-0.021739334 -0.03715266 0.023525383 0.012923341 0.006711561 -0.012060627 -0.041115012 -0.014598593
-0.030549105 -0.026332807 -0.024396678 0.0072237514 -0.035860848 -0.0010103546 -0.021575725 0.025859926
-0.0021943897 -0.019117545 0.0067814104 0.0007630922 0.029836562 -0.0206537 -0.026333332 -0.034526613
-0.024205258 -0.022478905 -0.016455775 0.019835483 0.0057673864 -0.023107883 -0.0024571419 0.03386866
-0.01724952 -0.038697496 0.017735612 -0.015583461 0.021723006 -0.008022103 0.022515263 -0.018990155
-0.0412693 -0.018403083 -0.037561744 -0.012745421 -0.010890126 -0.020358032 -0.02600832 -0.010366533
-0.024644157 -0.01588962 -0.03706668 0.027136024 0.0008403696 -0.014125854 0.027890038 -0.0007859431
0.03924788 -0.0011578351 0.020146519 0.03603271 0.01491018 -0.026270386 -0.026628902 0.03804137
0.029169243 -0.02746838 -0.016105458 -0.034374602 0.039635118 0.02791347 0.038525347 -0.012270153
0.033689123 -0.0056907386 0.008933876 -0.0063001774 -0.02243213 -0.038132127 -0.04131557 -0.007244248
-0.0359887 -0.00016126037 0.036389757 0.014151137 -0.0035556816 -0.0043151267 -0.003058795 0.028691117
0.036358427 0.010357846 0.024286497 0.010436937 -0.0011159293 -0.03056258 -0.011824092 0.007678371
0.040006075 0.008802086 -0.01687043 0.025877897 0.03293884 0.0008597113 0.0038184822 0.03758191
-0.029800236 0.03522143 -0.030557469 0.003899742 0.028261278 0.0013902672 -0.03901414 -0.030261582
0.020801172 -0.03332424 0.0245399 -0.0049001873 -0.006916765 0.004621323 0.027308945 0.023377467
0.00889805 -0.010675728 0.032772157 -0.012934744 0.038760785 0.0391008 -0.015726095 -0.026102861
-0.017777573 -0.03489871 0.0082268715 -0.0068989843 0.008593589 -0.040873673 -0.017791972 0.03718066
-0.036170855 -0.02235813 0.020437315 -0.024379086 0.023001302 0.02182402 0.017286435 0.019365799
-0.006056562 -0.023927724 0.026589949 -0.028720876 0.028662983 -0.015905648 0.012405064 -0.028699007
-0.008456599 0.030998733 -0.009532515 -0.026834494 -0.021724295 0.03993817 -0.030022597 0.020254824
-0.02415274 -0.03832186 -0.038093753 0.018783573 -0.005822357 0.01190922 -0.038130872 -0.0028474964
0.021949966 0.020395223 0.0060700886 0.040938895 0.023259524 -0.023640713 0.00390679 0.0015721209
0.040807847 -0.0072823577 -0.0044945627 -0.033257406 0.011674341 0.001003325 0.0321172 -0.0057492815
-0.03089 0.035732422 -0.0037271678 0.011477277 -0.009186704 0.034466002 -0.033145677 -0.011734119
-0.0230771 0.010406334 0.037363295 0.00063626096 -0.033736046 0.035393935 0.034561697 -0.022712499
-0.025721978 0.002658695 -0.005897686 -0.02212735 -0.024525106 0.013808962 -0.030544057 -0.00370726
0.014342297 0.03449751 -0.024566641 -0.0024775974 0.02444828 0.016216483 0.028563846 0.030222539

decoder.2.bias f4 [3]
00000000: 00da c63a e042 8c3b eb15 ffbc
0.001517117 0.004280433 -0.031138381
